vasanth.pt (torch, 2952 bytes, 6 tensors)

fc1.weight f4 [8, 4]
000000 a0 47 74 3d e0 0a 72 3d 92 2c d1 be 76 7a 94 be
       0.05963862 0.059092402 -0.40854317 -0.2899968
000010 fe 50 fc be 30 0d ec be ae 5c fc 3e 90 83 d3 3e
       -0.49280542 -0.4610381 0.4928946 0.41311312
000020 63 73 31 3f dc 44 65 3f 23 4f 0b bf d0 6f 7a bf
       0.6931669 0.89558196 -0.5441763 -0.9782686
000030 b8 5b 91 3e c4 57 26 be b4 a2 72 bb 7d cb 20 3e
       0.28390288 -0.16244417 -0.0037023248 0.15702625
000040 6e e7 86 3e 8e 95 92 be 60 02 46 be b8 42 ec be
       0.26348442 -0.28629726 -0.19336843 -0.46144652
000050 a9 72 d8 3d bb 30 bb be dd f9 3c 3f 9c eb 47 3f
       0.10568745 -0.36560616 0.7381876 0.78093886
000060 b8 b4 31 3f dd d0 9b 3d 49 8c 38 3f aa ba 77 3e
       0.6941638 0.07608197 0.7208906 0.241923
000070 3c 16 ca 39 ac 7c 17 bf a1 0e 86 3f 3d 8e 98 3f
       0.00038545008 -0.5917461 1.0473214 1.1918408

fc1.bias f4 [8]
000000 68 59 4c be fa eb 9c 3e 99 63 93 3f 72 c3 c1 be
       -0.19955981 0.30648786 1.151477 -0.37844425
000010 f8 b4 47 be c3 8e 1d bd 54 76 35 3f c1 9b 03 bf
       -0.19502628 -0.038466226 0.7088368 -0.51409537

fc2.weight f4 [9, 8]
000000 46 5a de 3d 3c 13 86 3e d3 56 3b 3f fa 36 79 be
       0.10857062 0.2618655 0.7317936 -0.24337378
000010 68 eb 14 be fe 44 05 3e 05 03 84 3e d7 92 04 bf
       -0.14542925 0.130146 0.25783554 -0.5178656
000020 ce ae f5 bd 88 ab af 3e dc c0 62 be c5 e4 68 3e
       -0.11996232 0.34310555 -0.22143883 0.22743519
000030 1b 15 52 3e 2e 9b ad be 7a b3 b4 be 53 5f f0 3d
       0.20515864 -0.33907455 -0.3529318 0.11736932
000040 e2 a1 31 3e 78 74 a0 3e 41 38 d2 be d7 b4 a1 3e
       0.1734691 0.3133886 -0.41058543 0.31583282
000050 ae a5 80 be 1c 3b 57 3f 29 0c d2 3d 8c 54 5f 3f
       -0.25126404 0.8407457 0.102562256 0.87238383
000060 b3 00 1d 3d 04 a2 5f 3e fe 3e 37 3f e1 85 d1 bb
       0.038330745 0.21839148 0.71580493 -0.0063941334
000070 31 9e 70 3b d9 5b a3 bd a8 e8 ab 3e a6 5b e3 be
       0.0036715383 -0.07976503 0.3357594 -0.4440586
000080 75 de 36 be 57 8a 2a be 7e c9 44 be 82 23 9a 3e
       -0.17858298 -0.16654335 -0.19217488 0.30105215
000090 0d cb 4c 3e 3d 13 15 3e bd 10 d9 bd 48 df 92 be
       0.19999333 0.1455812 -0.10598896 -0.28685975
0000a0 c1 15 9a 3d 0a 41 a7 3e d3 76 ca be 95 f1 a2 be
       0.075236805 0.32666808 -0.3954378 -0.31824937
0000b0 6d 63 00 bd 84 b2 19 3f a0 c0 0a 3f 95 c1 3a 3f
       -0.03134482 0.6003802 0.5420017 0.7295163
0000c0 e7 4f 7f be 48 b6 aa be 91 b2 d8 be c6 b7 ce 3c
       -0.24932824 -0.33342195 -0.42323735 0.025234114
0000d0 51 a5 4f 3e 8d 44 52 3f d3 da 0a 3f cf ac ab 3e
       0.20277907 0.8213585 0.5424015 0.3353028
0000e0 cb 12 b0 be 2b 4c 31 3e 1e e5 7a 3f 5e 21 1a 3e
       -0.34389338 0.17314212 0.98005855 0.15051791
0000f0 8d 40 36 be 5e a2 69 be e6 90 fe 3e 40 f5 23 bf
       -0.17798062 -0.22815844 0.49719924 -0.64046097
000100 14 a5 4e be 50 be 84 3d 14 0b d0 be a6 7e 4c be
       -0.2018016 0.06481612 -0.40633452 -0.19970188
000110 ea 67 3b bd 61 c7 13 be bb 5d af 3d 76 54 57 bd
       -0.045753397 -0.14431526 0.085627995 -0.052570783

fc2.bias f4 [9]
000000 ec 85 2e 3d bd 0f 0e bd a8 ea 9b be b0 10 39 3f
       0.042608187 -0.034682978 -0.30452466 0.7229109
000010 4a 14 a3 3c 31 18 19 bf 25 94 55 be 8e 32 38 3f
       0.019907136 -0.5980254 -0.20857294 0.7195214
000020 54 32 e7 3b
       0.00705556

out.weight f4 [3, 9]
000000 41 43 97 3e db aa b8 3d e2 13 e6 be e9 ba 3a 3f
       0.29543498 0.09016963 -0.44937044 0.7294145
000010 96 86 ba bd d0 29 0f bf b8 88 94 be 64 05 05 3f
       -0.091077015 -0.55923176 -0.29010558 0.5196135
000020 e5 4a e9 3d 5e ec 9b 3e df e4 95 3e ef f3 a1 3d
       0.11391238 0.3045377 0.29276177 0.07907855
000030 ab 03 94 3e 2b b6 ec 3d 2b 06 ed 3d cb d4 b2 3e
       0.28909048 0.11558183 0.11573442 0.34927973
000040 9c 91 4a 3e 39 fe 27 3e f4 e3 43 bf d6 e1 ef 3c
       0.19782108 0.16405572 -0.76519704 0.029282492
000050 61 99 4d 3f 57 80 7a bf e0 64 83 3d f7 25 5a 3f
       0.8031216 -0.9785208 0.06415725 0.8521418
000060 07 66 0c 3f d4 b7 4d bf 58 d9 d1 3c
       0.5484318 -0.80358624 0.025616333

out.bias f4 [3]
000000 a5 42 07 3f 16 c2 8a 3e 68 89 39 bf
       0.52836066 0.271012 -0.7247529
